media/models/model_lRfFBS8.pt (torch, 2697 bytes, 3 tensors)

net.0.weight f4 [16, 4]
000000 e9 cf b4 3d 75 05 40 3f 05 e2 69 3f b2 4d 36 3f
       0.08828718 0.75008327 0.91360503 0.71212304
000010 28 68 3d 3f b1 41 f5 3e 00 18 59 3e 8a f3 35 3f
       0.73987055 0.4790168 0.21200562 0.71074736
000020 ab fb 01 3f f8 3d 33 3f 9a 0d f9 3d 75 1b 8b bd
       0.5077464 0.7001643 0.121607974 -0.067923464
000030 47 1d 44 3f 1a 4f 3c 3c a7 59 81 3f 59 78 43 3e
       0.76607174 0.011493469 1.0105485 0.19088878
000040 9c b1 2b 3f 1c 55 5d 3d f8 18 d8 3e ab 9e 0d 3f
       0.67067885 0.054036245 0.4220655 0.55320233
000050 fc 8f 01 3f 3c cd 27 3f 46 3d 23 3f ef f5 e5 3d
       0.5061033 0.6554754 0.6376537 0.11228549
000060 bf 32 26 3f e7 e3 1d 3f bb 76 ac 3e 31 89 54 3f
       0.6492118 0.61675876 0.33684334 0.8302184
000070 28 7e 03 be 80 30 dc bc fc 39 70 be 38 e6 94 bd
       -0.12841094 -0.026878595 -0.2345962 -0.07270473
000080 26 c5 a4 be fc 2b 7c be a0 8c cb 3d 64 aa 64 be
       -0.32181662 -0.24626154 0.099389315 -0.22330624
000090 49 be f5 3e 7b b5 bb 3e 4c 5b da 3e e6 46 2b 3d
       0.4799674 0.36661896 0.4264778 0.04181566
0000a0 18 10 50 3f bd e8 3f 3e fa 02 49 3f cc 35 55 3f
       0.8127456 0.18741126 0.78520167 0.8328521
0000b0 b8 fe c8 be 4a e0 e7 be f9 9a 0e bf e4 9d cf bc
       -0.39256835 -0.45288306 -0.5570522 -0.025343843
0000c0 50 85 18 bd 00 51 49 3c 40 ce a4 3d be 03 92 3e
       -0.03723651 0.012287378 0.080471516 0.2851848
0000d0 af d4 31 3f 29 2d 27 3f c7 09 56 3e 66 30 3d 3f
       0.69465154 0.65303284 0.20902167 0.73901975
0000e0 a3 4a 61 3e 6c fb e3 be a5 31 2d 3d 2c b7 5b 3e
       0.22001128 -0.44527757 0.042283673 0.21456593
0000f0 3a 8e 04 bf c6 ae ba be 1b e7 02 3e 7f d2 e4 3c
       -0.5177952 -0.36461467 0.12783472 0.027932404

net.0.bias f4 [16]
000000 78 e9 ad 3d 57 a3 8a bd 86 66 98 3e b2 d5 d8 3d
       0.08491796 -0.06769436 0.2976572 0.10587634
000010 9f 31 39 3d 19 fe 21 3f c3 0f 67 bb d0 d4 4f be
       0.045213338 0.6327835 -0.0035257197 -0.20296025
000020 a8 dc a2 bd 3e aa f2 3e 99 a2 c6 3d 06 59 42 3d
       -0.07952243 0.4739551 0.09698982 0.04744818
000030 ea aa d0 be b5 69 40 3f dc a6 0b bf 6c 29 9d be
       -0.40755397 0.75161296 -0.5455148 -0.30695665

net.2.weight f4 [1, 16]
000000 12 fa d3 3e 0a 12 1c 3f 85 30 e4 3e 21 64 01 3f
       0.41401726 0.60965025 0.44568267 0.5054341
000010 44 0e a8 3e ba 01 11 3f 33 76 24 3f a0 44 f0 bd
       0.32823384 0.5664326 0.6424286 -0.11731839
000020 28 1c f4 3d 7c a1 d1 3e f5 b8 e3 3e f2 bd 90 bd
       0.11919433 0.40943515 0.4447705 -0.07067479
000030 ba 83 4d 3e d4 55 f8 3e 2d 2c 84 bd 26 96 be bd
       0.20069781 0.48502982 -0.06453738 -0.09305982
