Test Files/BatchClassification/model.pt (torch, 3475 bytes, 4 tensors)

net.0.weight f4 [32, 3]
000000 ac 7b 2d 3e 59 c1 a4 be 46 9d 5b be a7 5f c6 be
       0.16941708 -0.32178763 -0.21446714 -0.38744852
000010 09 ff b8 3e 06 a4 b0 3e 5f ff 65 3d 56 46 44 3e
       0.36132076 0.3450014 0.056151744 0.19167456
000020 c2 11 19 3d 4f a2 66 3d 15 db f3 bd 87 62 dc 3e
       0.03737045 0.056307133 -0.11907021 0.4304392
000030 54 9d 93 3e a6 1b 9f 3e 8b 9e a4 3e c2 fa d4 bd
       0.2883097 0.31075782 0.3215221 -0.10399391
000040 d0 12 9d 3d 34 ae cb bd eb 0c 96 be 90 a2 48 3e
       0.07669604 -0.09945336 -0.2930673 0.19593263
000050 9f a4 26 3e e1 03 1f be a9 f1 2e 3e 43 4d cd 3e
       0.16273735 -0.15528823 0.17084374 0.4009801
000060 6e fa a9 3e 1b 01 83 3e 27 df 02 3e 5e 75 df 3e
       0.33198875 0.2558678 0.12780438 0.43644232
000070 03 18 6e be 29 6e 99 bd cb 85 af be c5 7d 0e 3d
       -0.23251347 -0.074917145 -0.34281763 0.034787912
000080 aa c4 d3 3e ef 1c c9 bd 0b a0 c5 be 97 5f 89 3e
       0.4136098 -0.09819972 -0.38598666 0.26830742
000090 15 fb 57 3e 88 27 9c 3b 28 ad 18 bd 6e 8b c6 3e
       0.21091874 0.0047654547 -0.03727451 0.3877825
0000a0 78 21 72 bd 09 fa 82 be c2 54 94 3e ba 04 00 be
       -0.05911395 -0.25581387 0.28970915 -0.12501803
0000b0 63 da 91 be 18 c9 49 bd 04 a9 86 3e b0 fe 36 bd
       -0.28486928 -0.049264044 0.26300824 -0.044676483
0000c0 87 e8 b7 be 87 56 31 3d 67 59 b3 be 08 e7 4d 3b
       -0.35919592 0.04329541 -0.35029146 0.0031418223
0000d0 e6 d5 11 3e 51 13 02 3e c0 e5 66 3c 44 8c b4 bd
       0.14241752 0.12702681 0.014092863 -0.08815816
0000e0 48 fe 60 bc cf 66 07 3f 2e fd d2 bd d7 97 af be
       -0.0137325 0.5289125 -0.103021964 -0.34295532
0000f0 bf fb 99 3e f2 b1 bc bd 0d fb 8e 3e 5e c7 9c 3e
       0.3007488 -0.09213628 0.27925912 0.30620855
000100 5d 93 7f be 4d e0 f9 3d dc 45 d4 3e c9 78 72 bc
       -0.24958558 0.12200985 0.41459548 -0.014799305
000110 6d ad bf bd 38 fd a0 3e 57 6a 82 bd 5a bc 00 3c
       -0.0935925 0.3144319 -0.06367939 0.0078574065
000120 dd 8c c6 bd d2 31 96 3e 03 d5 af bd 64 6c d9 3d
       -0.09694836 0.29334885 -0.08585551 0.10616377
000130 0d 91 28 bd f8 59 3b be 31 35 d3 be 05 c7 ee bd
       -0.041153956 -0.18296039 -0.4125152 -0.11659054
000140 60 db 42 3e b4 54 4d be fe 12 2f 3e 24 5b fc bd
       0.19028997 -0.20051843 0.17097089 -0.12322071
000150 60 93 1d 3e 12 a1 7a be d7 97 ad 3e c3 c5 eb be
       0.1538825 -0.24475506 0.33904907 -0.46049318
000160 d2 b0 80 3e 5b 06 3e 3e 35 54 a6 be 88 18 98 be
       0.25134903 0.18557112 -0.3248612 -0.29706216
000170 88 39 d1 3d ca ee e0 bd a5 e2 31 be 6d 0d 0e 3e
       0.10216051 -0.109830454 -0.17371614 0.13872309

net.0.bias f4 [32]
000000 4b 30 ae 3d b9 6f 85 3c a0 88 28 be b2 5a eb 3e
       0.08505305 0.016288625 -0.16458368 0.45967633
000010 b8 ab e4 be a0 a9 3f be 71 41 a7 3e 4b 45 c8 be
       -0.4466226 -0.1871705 0.32667115 -0.39115366
000020 c9 b8 43 bf 1f b8 92 bd fe 62 15 be 4e 31 1d bf
       -0.76453835 -0.071640246 -0.14588544 -0.6140336
000030 95 9e b8 3e b4 2a f0 bc d6 c6 14 bf 51 e6 cd be
       0.36058488 -0.029317237 -0.581159 -0.4021478
000040 a0 79 93 38 2d 14 69 be db 77 b2 3e b9 73 b2 3e
       7.032161e-05 -0.22761603 0.34857067 0.34853914
000050 5c ef a7 3e 67 0a 7a 3e 73 bf 87 3e a0 51 0c bf
       0.32799804 0.2441803 0.26513252 -0.5481205
000060 fd 9e 2e be 52 b6 04 3e 5c 4f 22 bf f8 a1 48 bf
       -0.17052837 0.12960175 -0.6340234 -0.78372145
000070 f0 b7 d3 be 97 8a 4f 3d d9 60 05 be d7 8a 91 3c
       -0.4135127 0.05066928 -0.13025226 0.0177664

net.2.weight f4 [5, 32]
000000 d5 f8 22 bd 51 ee de bd 54 76 17 bd 01 23 18 be
       -0.039788086 -0.10885299 -0.03697808 -0.14857103
000010 bb e2 02 3e cf c5 4c bd b0 19 23 bd 2a 9c fe bc
       0.12781803 -0.049993332 -0.03981942 -0.031080324
000020 02 41 c7 bc ad 50 52 3d 74 10 0d 3e a6 41 f0 bc
       -0.02432299 0.05134647 0.13775808 -0.029328179
000030 3f 75 b9 bd 24 20 cf ba 73 92 bd bd c7 ec 97 3c
       -0.09055566 -0.0015802425 -0.092564486 0.018545521
000040 83 84 c8 bd 9e b5 1c bd 9e 31 a8 bc f1 2e 61 3d
       -0.097908996 -0.03825914 -0.020531472 0.054976407
000050 8c 78 15 3e c7 a0 d4 3d ba 7d 8b bd 08 62 5b bd
       0.14596766 0.10382228 -0.0681109 -0.053560287
000060 ec f2 b7 3d 1d a2 6a 3d 70 dc e8 bc 87 92 13 be
       0.089818805 0.05728351 -0.028425425 -0.14411364
000070 17 75 b2 bd 27 c6 75 bd ea a0 f2 3c fa 76 1f bd
       -0.08713739 -0.060003426 0.029617745 -0.038931824
000080 96 0b 86 3d 84 aa 0b bd b8 e1 e7 bb 0b bd df bd
       0.065451786 -0.034098163 -0.0070764683 -0.10924729
000090 c4 27 ed bd ec 40 64 bd 93 0f b9 3d a1 5e 21 be
       -0.1157985 -0.055725977 0.09036174 -0.15758754
0000a0 fe df 8b 3d 2e 6d 39 3b f4 34 2b bc 6f 99 d8 3d
       0.068298325 0.0028293836 -0.010449637 0.1057614
0000b0 be fc c5 3d c6 0b c6 3d 3c c4 aa bc 86 6c d8 bc
       0.09667347 0.09670214 -0.020845525 -0.026418936
0000c0 c9 16 b3 3d 40 16 3d bd 60 f2 3c bd 9a 28 32 bd
       0.0874458 -0.046163797 -0.046129584 -0.043495752
0000d0 ac 95 90 3d 70 00 f3 3d 4d 39 20 be 5a a1 7c 3c
       0.07059798 0.11865318 -0.15646859 0.015419329
0000e0 96 49 ea bd 87 81 d0 bc 87 97 bb 3c eb 83 c4 bd
       -0.11439817 -0.025452388 0.022899402 -0.09595474
0000f0 e3 c5 cd 3c 81 60 1c 3e fb de 2c 3e 9b df 04 3e
       0.025118774 0.15271188 0.16881935 0.12975924
000100 c2 71 4f 3c 59 35 38 be 74 9c 8a 3d ab cd 92 bc
       0.012661399 -0.179891 0.06768122 -0.017920336
000110 96 db 02 be a5 c1 3e bd 39 61 7a bd 5a b5 e7 3d
       -0.12779078 -0.046571393 -0.061127875 0.11313887
000120 68 98 91 3c f4 9c bf 3d 40 8a a3 bd 9b 87 d9 bd
       0.017772868 0.09356108 -0.079853535 -0.10621568
000130 4d 9a 82 3d 4a fd 09 3d 22 4d b0 bc 66 f7 c7 3d
       0.06377087 0.03368882 -0.021521155 0.097639844
000140 db 60 22 3d a0 f0 5c bd ff bc 91 bd 86 61 82 bd
       0.03964315 -0.053940415 -0.07116126 -0.06366257
000150 a6 e7 02 3e 0c f5 9b 3d 0e 24 27 3c 53 ad 33 be
       0.1278368 0.07615098 0.010201467 -0.17546587
000160 31 bb 2e be f8 68 88 bc 4a c1 67 bd 18 78 b8 bd
       -0.17063595 -0.016651616 -0.05658082 -0.09007281
000170 80 4e fe bc 5c 0a 0e bd f4 36 78 3c 35 99 01 bd
       -0.031043291 -0.03467785 0.015149821 -0.03164025
000180 10 a5 b2 3b d5 47 93 bd 21 18 ad 3b 2b 2e 4d bd
       0.005451806 -0.07191435 0.0052824174 -0.050092857
000190 33 fb ac bc 3b dd d9 bd 7f 54 cb 3d d9 88 51 bd
       -0.021115875 -0.106378995 0.09928226 -0.0511559
0001a0 44 47 22 bd c0 10 13 be 7b d8 cd 3d f4 d9 29 3c
       -0.039618745 -0.14361858 0.10051056 0.0103669055
0001b0 9b a9 bd 3c 45 88 2e bd 44 c5 29 3d 41 f0 b0 bd
       0.023152163 -0.042610426 0.041447893 -0.08639575
0001c0 10 07 87 bd 98 49 91 3b 25 d8 fe bd 55 c1 42 bd
       -0.06593144 0.004433822 -0.1244357 -0.047547657
0001d0 3f 09 00 3d 6e 89 fb bc 56 8c e3 bc a4 68 07 bc
       0.031258818 -0.03070518 -0.027776878 -0.008264694
0001e0 66 10 e3 bd d9 5d 21 be 83 2e 8f 3d 43 c2 c0 3d
       -0.11087112 -0.15758456 0.06991293 0.094120525
0001f0 b9 49 2a 3d 68 ed 7f bc 20 f7 a3 3b e8 8b cc 3d
       0.041574214 -0.015620567 0.005003825 0.099876225
000200 c2 46 94 bd 82 30 22 be 03 6a e1 bd 74 93 cd 3d
       -0.072400585 -0.15838817 -0.11006548 0.1003789
000210 6f 1e 03 3e 4d f0 3c bd 55 f8 52 3d d5 93 bb 3d
       0.12804578 -0.046127606 0.05150636 0.09159056
000220 39 60 93 3d 5b ff 2d 3d c5 ef 5d 3d 44 d3 4d bd
       0.071960874 0.042479854 0.05418374 -0.050250307
000230 38 6c ab bd e4 05 37 bd cd 15 17 be a5 4c f9 bd
       -0.083702505 -0.044683352 -0.1475441 -0.12172822
000240 51 14 b7 bd 4f 75 7b bd cd b1 de 3d fe 5b 00 3e
       -0.08939422 -0.06139117 0.108737566 0.12535092
000250 b6 a6 c4 bc 82 a6 f8 3d 3e 11 ab bd b9 90 bc bb
       -0.024005275 0.12141134 -0.08352898 -0.005754557
000260 50 4d 88 b9 30 ce aa bc 94 38 92 3d 7d 2c ac bd
       -0.00025997544 -0.020850271 0.07139698 -0.08406923
000270 6e b2 a2 3d 78 a9 a5 3d a2 9f ff bc 93 db 4f 3c
       0.07944189 0.08088964 -0.031204049 0.012686628

net.2.bias f4 [5]
000000 f5 66 ec 3d ff aa 81 bd 57 b3 a0 3d 79 39 a8 3d
       0.11543075 -0.06331443 0.07846706 0.08214087
000010 da 76 b9 3c
       0.02263968
