Test Files/TextSentiment/model.pt (torch, 9885 bytes, 2 tensors)

linear.weight f4 [2, 1000]
0	0x3d431816	0.047630392
1	0xbd47a073	-0.048737
2	0xbcc37d13	-0.023863351
3	0xbd80fb5e	-0.062979445
4	0xbcfc6be2	-0.030813161
5	0x3c3e0c23	0.011599573
6	0xbd647d44	-0.055783525
7	0xbd86a277	-0.065739565
8	0x3dda8b43	0.10671093
9	0x3cf62556	0.0300471
10	0x3d672507	0.056431796
11	0x3dd82763	0.105543874
12	0xbd2ba44d	-0.041904736
13	0xbd2b6f4b	-0.041854184
14	0xbd0dcd40	-0.03461957
15	0x3d00a215	0.031404573
16	0x3e149dd1	0.14513327
17	0xbd17cef9	-0.03706262
18	0x3d8fc7da	0.070205405
19	0x3c156f1b	0.009120728
20	0xbaf756ea	-0.0018870507
21	0xbce4b151	-0.027916582
22	0x3c90387c	0.017605059
23	0xbc3f2b93	-0.011668104
24	0xbc95060a	-0.018191356
25	0xbd182655	-0.03714593
26	0xbdc2665b	-0.09492179
27	0xbd434916	-0.047677122
28	0x3c82a4d9	0.015947746
29	0x3d97c5e4	0.074107915
30	0x3db93ae3	0.09044435
31	0xbc533cb0	-0.012892887
32	0xbcd796c1	-0.026317002
33	0x3d32f597	0.043691244
34	0xbde4f602	-0.11179735
35	0x3e0240f1	0.12720086
36	0x3d106477	0.03525206
37	0x3d21c551	0.039494816
38	0xbd62b064	-0.055344
39	0x3c8b2c90	0.016989022
40	0xbd82c5c3	-0.06385376
41	0x3d1c81ba	0.038209654
42	0x3bf9077a	0.007599768
43	0xbd3df186	-0.046372913
44	0xbd867ed1	-0.06567157
45	0xbd516dd8	-0.051130146
46	0xbd07731f	-0.033068772
47	0xbd88af69	-0.06674082
48	0xbdd36bf9	-0.103233285
49	0x3d2195a7	0.03944936
50	0xbd48e46c	-0.049045965
51	0xbd68a0ef	-0.056794103
52	0xbc54bcaa	-0.012984434
53	0x3d1c8b02	0.038218506
54	0xbc319e76	-0.010841003
55	0xbc70db74	-0.014700759
56	0xbd9e3900	-0.07725716
57	0x3ccc60fd	0.024948591
58	0x3c392107	0.011299378
59	0x3d84b9ad	0.06480727
60	0x3ceb9d62	0.02876157
61	0xbc31e3ca	-0.010857532
62	0xbca833fa	-0.020532597
63	0x3d85f6e1	0.06541229
64	0x3ccfe832	0.025379274
65	0x3ca91b60	0.020642936
66	0xbd6c375e	-0.05766999
67	0xbcd24b7e	-0.025670763
68	0x3d91b44d	0.07114468
69	0x3d82601e	0.06365989
70	0x3da53980	0.08067608
71	0x3cf28d70	0.029608458
72	0xbd504f09	-0.050856624
73	0x3b383020	0.0028104857
74	0x3c369875	0.011144747
75	0xbcf2e52a	-0.02965029
76	0xbc9db19e	-0.019249734
77	0xbc209154	-0.009800274
78	0xbc617dba	-0.013762886
79	0xbdf88410	-0.12134564
80	0xbd7b70a0	-0.061386704
81	0x3d63ea26	0.055643223
82	0xbd12feb8	-0.03588745
83	0xbd56c177	-0.052430596
84	0xbd7906fb	-0.060797673
85	0xbbbbd9e0	-0.00573276
86	0x3e0d181c	0.13778728
87	0xbcbc5326	-0.022988867
88	0xbcae5713	-0.021281755
89	0x3d1cf26d	0.038317133
90	0x3dad8a4e	0.08473645
91	0x3dde9e75	0.10870067
92	0xbd2c1360	-0.042010665
93	0xbc977e5a	-0.018492866
94	0x3ca93352	0.020654354
95	0xbd7287b6	-0.059211455
96	0x3d09d037	0.033645835
97	0xbd98e0f8	-0.074647844
98	0x3dbe3e84	0.09289268
99	0xbcab0ecd	-0.020881081
100	0xbd94ece6	-0.07271747
101	0xbda09204	-0.0784035
102	0x3d3f7479	0.046741936
103	0x3d2fca8e	0.04291778
104	0xbdabf5b0	-0.083964705
105	0x3cdf685f	0.027271448
106	0xbd511812	-0.051048346
107	0x3d896015	0.06707779
108	0xbcecd181	-0.028908493
109	0x3d20d44d	0.039264966
110	0x3d377c08	0.04479602
111	0xbe0cb76b	-0.13741843
112	0xbc5ac6af	-0.013353034
113	0x3b73e478	0.0037215035
114	0xbd687012	-0.056747504
115	0xbdba4efc	-0.09097096
116	0xbd893f1b	-0.067014895
117	0xbd069ac7	-0.03286245
118	0x39a2e77a	0.0003107151
119	0xbcd8ed50	-0.026480347
120	0xbc72a439	-0.014809662
121	0xbd36a79d	-0.044593442
122	0x3d7dffce	0.062011532
123	0x3da33e5d	0.07970879
124	0xbc56d57c	-0.013112422
125	0x3d08d2b9	0.033404086
126	0x3ccaf4cc	0.024774931
127	0x3d89b59a	0.06724091
128	0xbcc8f9d7	-0.024533195
129	0xbd29fd47	-0.04150131
130	0xbd042906	-0.032265685
131	0x3d3a055d	0.04541527
132	0x3b88554b	0.0041605583
133	0x3c82cd7d	0.015967125
134	0x3d833d47	0.06408172
135	0x3cf29853	0.02961365
136	0x3b6c97fb	0.003610133
137	0x3b72e952	0.003706534
138	0xbd0f9438	-0.03505346
139	0xbc91be0c	-0.017790817
140	0x3dae5e32	0.0851406
141	0xbdbd90c2	-0.09256126
142	0xbd5e318d	-0.054246474
143	0xbc8ddbc3	-0.017316705
144	0x3d273404	0.04082109
145	0xbcf50401	-0.029909136
146	0xbcce183d	-0.025158042
147	0xbb8fdc8c	-0.004390305
148	0xbd1b292d	-0.037881065
149	0x3de575c6	0.11204104
150	0x3d35b675	0.044363458
151	0x3bdc2d9e	0.006719305
152	0x3cbca486	0.02302767
153	0xbd3109b1	-0.043222133
154	0x3d034b64	0.03205432
155	0x3d97648f	0.07392227
156	0xbd0d3347	-0.03447273
157	0xbc0adc86	-0.008475428
158	0xbbf7dbda	-0.00756405
159	0xbd71c925	-0.059029717
160	0xbd7adf00	-0.061247826
161	0x37bb6d40	2.234301e-05
162	0x37d769d7	2.5679283e-05
163	0xbe06249a	-0.130999
164	0x3c961d0f	0.018324403
165	0xbbf86532	-0.007580423
166	0xbd8e857a	-0.069590524
167	0xbd660ba2	-0.056163438
168	0x3cf08497	0.029360099
169	0x3ce4200d	0.027847314
170	0xbd6ae0ee	-0.057343416
171	0x3ddde8ed	0.10835443
172	0x3cdb6be1	0.02678484
173	0x3cb66021	0.022262635
174	0x3b1acd38	0.0023620855
175	0xbccf8b4e	-0.02533498
176	0x3db4eeda	0.0883462
177	0xbda9f4ab	-0.0829862
178	0xbd613b9f	-0.0549885
179	0x3d254fb7	0.040359225
180	0xbd961879	-0.073288865
181	0x3d75f7a9	0.06005064
182	0xbd03afd4	-0.032150105
183	0x3d6cb910	0.057793677
184	0xbcc8f437	-0.024530513
185	0x3cdca563	0.026934331
186	0xbd747a7a	-0.059687115
187	0xbca167b6	-0.019702774
188	0x3d3da99d	0.046304334
189	0xbdbd2836	-0.09236185
190	0x3d9c9915	0.076463856
191	0xbd3b2d39	-0.045697425
192	0xbd74c3e8	-0.059757143
193	0x3d733389	0.05937532
194	0xbd120668	-0.03565064
195	0xbc95c7b3	-0.0182837
196	0xbdada03f	-0.0847783
197	0xbd74ff25	-0.059813637
198	0x3d7202d0	0.059084713
199	0x3d9eebb4	0.077598006
200	0xbcc6d236	-0.024270158
201	0x3b25bfe5	0.002529138
202	0x3d8bacab	0.06820043
203	0xbd188c00	-0.03724289
204	0xbcc8069f	-0.02441722
205	0x3cdbdef9	0.02683972
206	0x3d28087b	0.041023713
207	0x3cb164c6	0.021654498
208	0xbceba69a	-0.028765965
209	0xbcce3411	-0.025171312
210	0xbd814567	-0.063120656
211	0x3c78f1b8	0.015194349
212	0x3d2242be	0.03961443
213	0xbd124a68	-0.03571549
214	0xbd1c0404	-0.038089767
215	0xbca91dae	-0.020644035
216	0x3d587da3	0.05285419
217	0x3cb69715	0.022288838
218	0xbd7f3ce4	-0.06231393
219	0x3dc8d709	0.0980664
220	0x3d50ccdb	0.050976615
221	0xbd215d3f	-0.039395567
222	0xbca36907	-0.019947542
223	0xbd7966c3	-0.060889017
224	0xbcb3d0eb	-0.021950206
225	0x3d5fd9fb	0.05465124
226	0xbd4f1851	-0.0505603
227	0xbd1da95e	-0.0384916
228	0x3c1e9662	0.009679409
229	0x3d98e285	0.0746508
230	0x3db2daa2	0.08733107
231	0xbbba3d07	-0.0056835446
232	0xbda740f6	-0.08166687
233	0xbc1709f6	-0.0092186835
234	0x3d941d6b	0.072321735
235	0xbd2d3bc6	-0.042293333
236	0xbe032812	-0.12808254
237	0x3b4df6f1	0.0031427706
238	0xbc214387	-0.00984276
239	0xbd758633	-0.059942435
240	0x3cc0436d	0.023469651
241	0x3c103d15	0.008803626
242	0xbaa07dd9	-0.0012244537
243	0xbd2cda6f	-0.042200502
244	0xbcab030d	-0.020875478
245	0xbd6a6724	-0.05722727
246	0xbde00549	-0.10938508
247	0xbc09c366	-0.008408403
248	0x3d5724ce	0.052525334
249	0xbd910ffc	-0.07083127
250	0x3d6d4a62	0.057932265
251	0xbd3e2d81	-0.046430115
252	0xbd6d375d	-0.057914127
253	0x3c6c71d7	0.014431438
254	0x3ca1fbf8	0.019773468
255	0x3d20f293	0.039293837

linear.bias f4 [2]
0	0x3c39d6c8	0.011342712
1	0x3ca4dca5	0.020124743
